…
GPU detected: 1 physical, 1 logical -> ['/device:GPU:0']
Loaded (1276, 36, 75) (1276,)
Model: "model"
__________________________________________________________________________________________________
 Layer (type)                Output Shape                 Param #   Connected to                  
==================================================================================================
 input (InputLayer)          [(None, 36, 75)]             0         []                            
                                                                                                  
 conv1d (Conv1D)             (None, 36, 64)               4864      ['input[0][0]']               
                                                                                                  
 conv1d_1 (Conv1D)           (None, 36, 64)               12352     ['conv1d[0][0]']              
                                                                                                  
 activation (Activation)     (None, 36, 64)               0         ['conv1d_1[0][0]']            
                                                                                                  
 dropout (Dropout)           (None, 36, 64)               0         ['activation[0][0]']          
                                                                                                  
 conv1d_2 (Conv1D)           (None, 36, 64)               12352     ['dropout[0][0]']             
                                                                                                  
 activation_1 (Activation)   (None, 36, 64)               0         ['conv1d_2[0][0]']            
                                                                                                  
 dropout_1 (Dropout)         (None, 36, 64)               0         ['activation_1[0][0]']        
                                                                                                  
 lambda (Lambda)             (None, 36, 64)               0         ['dropout_1[0][0]']           
                                                                                                  
 add (Add)                   (None, 36, 64)               0         ['conv1d[0][0]',              
                                                                     'lambda[0][0]']              
                                                                                                  
 layer_normalization (Layer  (None, 36, 64)               128       ['add[0][0]']                 
 Normalization)                                                                                   
                                                                                                  
 conv1d_3 (Conv1D)           (None, 36, 64)               12352     ['layer_normalization[0][0]'] 
                                                                                                  
 activation_2 (Activation)   (None, 36, 64)               0         ['conv1d_3[0][0]']            
                                                                                                  
 dropout_2 (Dropout)         (None, 36, 64)               0         ['activation_2[0][0]']        
                                                                                                  
 conv1d_4 (Conv1D)           (None, 36, 64)               12352     ['dropout_2[0][0]']           
                                                                                                  
 activation_3 (Activation)   (None, 36, 64)               0         ['conv1d_4[0][0]']            
                                                                                                  
 dropout_3 (Dropout)         (None, 36, 64)               0         ['activation_3[0][0]']        
                                                                                                  
 lambda_1 (Lambda)           (None, 36, 64)               0         ['dropout_3[0][0]']           
                                                                                                  
 add_1 (Add)                 (None, 36, 64)               0         ['layer_normalization[0][0]', 
                                                                     'lambda_1[0][0]']            
                                                                                                  
 layer_normalization_1 (Lay  (None, 36, 64)               128       ['add_1[0][0]']               
 erNormalization)                                                                                 
                                                                                                  
 conv1d_5 (Conv1D)           (None, 36, 64)               12352     ['layer_normalization_1[0][0]'
                                                                    ]                             
                                                                                                  
 activation_4 (Activation)   (None, 36, 64)               0         ['conv1d_5[0][0]']            
                                                                                                  
 dropout_4 (Dropout)         (None, 36, 64)               0         ['activation_4[0][0]']        
                                                                                                  
 conv1d_6 (Conv1D)           (None, 36, 64)               12352     ['dropout_4[0][0]']           
                                                                                                  
 activation_5 (Activation)   (None, 36, 64)               0         ['conv1d_6[0][0]']            
                                                                                                  
 dropout_5 (Dropout)         (None, 36, 64)               0         ['activation_5[0][0]']        
                                                                                                  
 lambda_2 (Lambda)           (None, 36, 64)               0         ['dropout_5[0][0]']           
                                                                                                  
 add_2 (Add)                 (None, 36, 64)               0         ['layer_normalization_1[0][0]'
                                                                    , 'lambda_2[0][0]']           
                                                                                                  
 layer_normalization_2 (Lay  (None, 36, 64)               128       ['add_2[0][0]']               
 erNormalization)                                                                                 
                                                                                                  
 conv1d_7 (Conv1D)           (None, 36, 64)               12352     ['layer_normalization_2[0][0]'
                                                                    ]                             
                                                                                                  
 activation_6 (Activation)   (None, 36, 64)               0         ['conv1d_7[0][0]']            
                                                                                                  
 dropout_6 (Dropout)         (None, 36, 64)               0         ['activation_6[0][0]']        
                                                                                                  
 conv1d_8 (Conv1D)           (None, 36, 64)               12352     ['dropout_6[0][0]']           
                                                                                                  
 activation_7 (Activation)   (None, 36, 64)               0         ['conv1d_8[0][0]']            
                                                                                                  
 dropout_7 (Dropout)         (None, 36, 64)               0         ['activation_7[0][0]']        
                                                                                                  
 lambda_3 (Lambda)           (None, 36, 64)               0         ['dropout_7[0][0]']           
                                                                                                  
 add_3 (Add)                 (None, 36, 64)               0         ['layer_normalization_2[0][0]'
                                                                    , 'lambda_3[0][0]']           
                                                                                                  
 layer_normalization_3 (Lay  (None, 36, 64)               128       ['add_3[0][0]']               
 erNormalization)                                                                                 
                                                                                                  
 gated_attn_g_channel (_Cha  (None, 36, 64)               64        ['layer_normalization_3[0][0]'
 nnelVectorGateLayer)                                               ]                             
                                                                                                  
 gated_attn_gated_part (Lam  (None, 36, 64)               0         ['layer_normalization_3[0][0]'
 bda)                                                               , 'gated_attn_g_channel[0][0]'
                                                                    ]                             
                                                                                                  
 gated_attn_residual_out (L  (None, 36, 64)               0         ['layer_normalization_3[0][0]'
 ambda)                                                             , 'gated_attn_gated_part[0][0]
                                                                    ']                            
                                                                                                  
 gated_attn_h_from_residual  (None, 36, 32)               2080      ['gated_attn_residual_out[0][0
  (Dense)                                                           ]']                           
                                                                                                  
 gated_attn_score (Dense)    (None, 36, 1)                33        ['gated_attn_h_from_residual[0
                                                                    ][0]']                        
                                                                                                  
 gated_attn_squeeze (Lambda  (None, 36)                   0         ['gated_attn_score[0][0]']    
 )                                                                                                
                                                                                                  
 gated_attn_softmax (Lambda  (None, 36)                   0         ['gated_attn_squeeze[0][0]']  
 )                                                                                                
                                                                                                  
 gated_attn_expand (Lambda)  (None, 36, 1)                0         ['gated_attn_softmax[0][0]']  
                                                                                                  
 gated_attn_weighted (Lambd  (None, 64)                   0         ['layer_normalization_3[0][0]'
 a)                                                                 , 'gated_attn_expand[0][0]']  
                                                                                                  
 out (Dense)                 (None, 1)                    65        ['gated_attn_weighted[0][0]'] 
                                                                                                  
==================================================================================================
Total params: 106434 (415.76 KB)
Trainable params: 106434 (415.76 KB)
Non-trainable params: 0 (0.00 Byte)
__________________________________________________________________________________________________
…
